…
You should probably TRAIN this model on a down-stream task to be able to use it for predictions and inference.
Some weights of Qwen2ForCausalLM were not initialized from the model checkpoint at unsloth/Qwen2.5-1.5B-Instruct and are newly initialized: ['model.thinking_residual_Lambda.Lambda', 'model.thinking_residual_gate_i.bias', 'model.thinking_residual_gate_i.weight', 'model.thinking_residual_gate_r.bias', 'model.thinking_residual_gate_r.weight']
You should probably TRAIN this model on a down-stream task to be able to use it for predictions and inference.
Model loaded: qwen/Qwen2.5-1.5B-Instruct
Padding side: left
Qwen2ForCausalLM(
  (model): Qwen2Model(
    (embed_tokens): Embedding(151936, 1536, padding_idx=151654)
    (layers): ModuleList(
      (0-27): 28 x Qwen2DecoderLayer(
        (self_attn): Qwen2Attention(
          (q_proj): Linear(in_features=1536, out_features=1536, bias=True)
          (k_proj): Linear(in_features=1536, out_features=256, bias=True)
          (v_proj): Linear(in_features=1536, out_features=256, bias=True)
          (o_proj): Linear(in_features=1536, out_features=1536, bias=False)
          (rotary_emb): LlamaRotaryEmbedding()
        )
        (mlp): Qwen2MLP(
          (gate_proj): Linear(in_features=1536, out_features=8960, bias=False)
          (up_proj): Linear(in_features=1536, out_features=8960, bias=False)
          (down_proj): Linear(in_features=8960, out_features=1536, bias=False)
          (act_fn): SiLUActivation()
        )
        (input_layernorm): Qwen2RMSNorm((1536,), eps=1e-06)
        (post_attention_layernorm): Qwen2RMSNorm((1536,), eps=1e-06)
      )
    )
    (norm): Qwen2RMSNorm((1536,), eps=1e-06)
    (rotary_emb): LlamaRotaryEmbedding()
    (thinking_residual_gate_r): Linear(in_features=1536, out_features=1536, bias=True)
    (thinking_residual_gate_i): Linear(in_features=1536, out_features=1536, bias=True)
    (thinking_residual_Lambda): ThinkingResidualLambda()
  )
  (lm_head): Linear(in_features=1536, out_features=151936, bias=False)
)
Detected thinking residual parameters; enabling residual-specific settings.
Unsloth 2025.12.7 patched 28 layers with 28 QKV layers, 28 O layers and 28 MLP layers.
Unsloth 2025.12.7 patched 28 layers with 28 QKV layers, 28 O layers and 28 MLP layers.
Unsloth 2025.12.7 patched 28 layers with 28 QKV layers, 28 O layers and 28 MLP layers.
Unsloth: Training thinking_residual in mixed precision to save VRAM
…
