…
', 'model.m3po_path_collaborator.query_proj.weight', 'model.m3po_path_collaborator.value_proj.bias', 'model.m3po_path_collaborator.value_proj.weight', 'model.m3po_router.gate.bias', 'model.m3po_router.gate.weight']
You should probably TRAIN this model on a down-stream task to be able to use it for predictions and inference.
Unsloth 2025.12.7 patched 28 layers with 28 QKV layers, 28 O layers and 28 MLP layers.
[Training Script] M3PO/ASLR enabled with N=4 path(s), T=2 iterations
Model loaded: qwen/Qwen2.5-1.5B-Instruct
Padding side: left
Qwen2ForCausalLM(
  (model): Qwen2Model(
    (embed_tokens): Embedding(151936, 1536, padding_idx=151654)
    (layers): ModuleList(
      (0-27): 28 x Qwen2DecoderLayer(
        (self_attn): Qwen2Attention(
          (q_proj): Linear(in_features=1536, out_features=1536, bias=True)
          (k_proj): Linear(in_features=1536, out_features=256, bias=True)
          (v_proj): Linear(in_features=1536, out_features=256, bias=True)
          (o_proj): Linear(in_features=1536, out_features=1536, bias=False)
          (rotary_emb): LlamaRotaryEmbedding()
        )
        (mlp): Qwen2MLP(
          (gate_proj): Linear(in_features=1536, out_features=8960, bias=False)
          (up_proj): Linear(in_features=1536, out_features=8960, bias=False)
          (down_proj): Linear(in_features=8960, out_features=1536, bias=False)
          (act_fn): SiLUActivation()
        )
        (input_layernorm): Qwen2RMSNorm((1536,), eps=1e-06)
        (post_attention_layernorm): Qwen2RMSNorm((1536,), eps=1e-06)
      )
    )
    (norm): Qwen2RMSNorm((1536,), eps=1e-06)
    (rotary_emb): LlamaRotaryEmbedding()
    (m3po_router): M3PORouter(
      (gate): Linear(in_features=1536, out_features=1, bias=True)
    )
    (m3po_path_collaborator): M3POPathCollaborator(
      (query_proj): Linear(in_features=1536, out_features=1536, bias=True)
      (key_proj): Linear(in_features=1536, out_features=1536, bias=True)
      (value_proj): Linear(in_features=1536, out_features=1536, bias=True)
    )
    (m3po_path_aggregator): M3POPathAggregator(
      (weight_proj): Linear(in_features=1536, out_features=1, bias=True)
    )
  )
  (lm_head): Linear(in_features=1536, out_features=151936, bias=False)
)
Unsloth 2025.12.7 patched 28 layers with 28 QKV layers, 28 O layers and 28 MLP layers.
Unsloth 2025.12.7 patched 28 layers with 28 QKV layers, 28 O layers and 28 MLP layers.
Unsloth 2025.12.7 patched 28 layers with 28 QKV layers, 28 O layers and 28 MLP layers.
Unsloth 2025.12.7 patched 28 layers with 28 QKV layers, 28 O layers and 28 MLP layers.
…
